D:\programs\Anaconda\envs\pytorch\python.exe G:/笔记本数据保存/Y700数据互通/软件安装/chatgpt_academic-master/1.py
ResidualAlexNet(
  (conv1): Conv2d(1, 64, kernel_size=(11, 11), stride=(4, 4), padding=(2, 2))
  (bn1): BatchNorm2d(64, eps=1e-05, momentum=0.1, affine=True, track_running_stats=True)
  (relu): PReLU(num_parameters=1)
  (pool): MaxPool2d(kernel_size=3, stride=2, padding=0, dilation=1, ceil_mode=False)
  (conv2): Conv2d(64, 192, kernel_size=(5, 5), stride=(1, 1), padding=(2, 2))
  (bn2): BatchNorm2d(192, eps=1e-05, momentum=0.1, affine=True, track_running_stats=True)
  (conv3): Conv2d(192, 384, kernel_size=(3, 3), stride=(1, 1), padding=(1, 1))
  (bn3): BatchNorm2d(384, eps=1e-05, momentum=0.1, affine=True, track_running_stats=True)
  (conv4): Conv2d(384, 256, kernel_size=(3, 3), stride=(1, 1), padding=(1, 1))
  (bn4): BatchNorm2d(256, eps=1e-05, momentum=0.1, affine=True, track_running_stats=True)
  (conv5): Conv2d(256, 256, kernel_size=(3, 3), stride=(1, 1), padding=(1, 1))
  (bn5): BatchNorm2d(256, eps=1e-05, momentum=0.1, affine=True, track_running_stats=True)
  (avgpool): AdaptiveAvgPool2d(output_size=(6, 6))
  (classifier): Sequential(
    (0): Dropout(p=0.5, inplace=False)
    (1): Linear(in_features=9216, out_features=4096, bias=True)
    (2): PReLU(num_parameters=1)
    (3): Dropout(p=0.5, inplace=False)
    (4): Linear(in_features=4096, out_features=4096, bias=True)
    (5): PReLU(num_parameters=1)
    (6): Linear(in_features=4096, out_features=10, bias=True)
  )
)
(tensor([[ 0.0410, -0.0192, -0.3142, -0.3567,  0.8141,  0.4100,  0.0217, -0.4752,
          0.5587, -0.8292]], device='cuda:0', grad_fn=<AddmmBackward0>), tensor([[0.0943, 0.0888, 0.0661, 0.0634, 0.2043, 0.1364, 0.0925, 0.0563, 0.1583,
         0.0395]], device='cuda:0', grad_fn=<SoftmaxBackward0>))
Epoch: 001/010 | Batch: 000/938 | Cost: 2.4198
…
